apps/embedded/urban_sounds_model_classifier.onnx (onnx, 119314 bytes, 8 tensors)

fc1.weight f4 [120, 128]
0.06057326 0.0777585 -0.12363669 0.07686625 0.019716438 0.2331073 -0.19338903 -0.42953235
-0.09624491 -0.023041269 0.17325571 0.15064597 0.10517163 -0.20995672 -0.024339255 0.17210227
0.0618037 0.026224578 -0.06774599 -0.028525613 -0.007367038 -0.07520408 -0.0050202883 0.04268429
-0.04575822 0.10496446 -0.0049420353 -0.1163369 0.31857 0.0016849983 0.16304395 -0.11044935
-0.16724816 -0.27074888 0.11965554 0.07335454 -0.058454737 0.1369939 -0.04528138 -0.010308157
0.052509043 0.012774142 0.08569339 0.10780363 -0.013589946 -0.05700112 -0.051057734 -0.12555538
-0.058812995 -0.14864546 -0.11365695 0.0031907354 0.14737 0.110551804 -0.04308811 -0.015753414
-0.041279096 -0.027680362 -0.010742453 0.05582336 0.024406364 -0.085978664 -0.036906097 -0.008710153
0.14834672 0.056374375 0.025806472 0.13347897 0.008770657 0.16348107 0.13571565 0.06124392
0.1498488 0.10208943 0.07056769 0.0113567365 0.0914512 -0.049339313 -0.15902407 -0.037112623
0.034926716 -0.052223265 -0.0007068171 0.08670329 -0.07105805 0.010781007 0.056916192 -0.026153253
-0.080855556 -0.034217443 0.075720206 -0.058182176 0.03352864 -0.05499165 -0.037612572 -0.0314357
0.0015656636 0.13838038 0.021721693 0.009360571 0.01013482 0.09018929 -0.039624825 0.041260917
-0.0040457402 -0.023171306 -0.0013230859 0.113291465 0.07047657 0.086071126 -0.020673051 0.09997483
0.101807445 -0.031702336 0.060936518 -0.042279076 0.02475088 0.07684715 0.028074414 0.044283498
0.08509103 -0.047077563 0.0154189775 0.090804435 -0.08149311 0.02814434 -0.050500333 0.041821755
-0.35048705 -0.08210971 0.08818872 -0.03281355 0.28930798 0.0073212716 0.107659474 0.2514626
-0.16429313 -0.13246909 -0.010247325 0.09077246 0.020377312 -0.014976364 -0.11230568 -0.13316014
-0.0396772 -0.035360314 -0.07659173 -0.014331519 0.012209479 -0.1000856 -0.06541332 -0.07987218
-0.19111435 -0.22457372 -0.12743376 0.06746185 -0.09322252 -0.1272198 -0.016040469 -0.14068326
0.0042528654 0.15092097 0.05678432 -0.07168649 -0.124494985 0.15426902 0.090980135 0.09504106
0.10392287 0.13509734 0.06008749 -0.032992568 0.028110765 -0.026155489 -0.07265856 0.01816133
0.08315421 -0.04641087 0.023473019 -0.11623078 -0.057180755 -0.026224263 -0.03140689 -0.10452929
-0.09606262 0.061659165 0.07841969 0.09440589 0.062984884 0.07041667 0.020688832 0.0886183
0.18085733 -0.08685871 0.10161306 0.035748824 -0.0695674 -0.03609119 -0.005277045 -0.033250865
0.088931724 -0.055859298 -0.042076383 0.014532296 -0.044866752 -0.2379994 -0.17661333 -0.06881143
-0.14804794 -0.17544945 -0.17991866 -0.083206445 -0.12970996 -0.09786985 -0.015088296 -0.030718964
-0.052800953 -0.09131227 -0.022500541 -0.09499881 -0.07805634 -0.114600256 -0.06324509 -0.004396096
-0.024791764 -0.14009275 0.05820007 -0.07587565 -0.053997047 -0.11969901 0.0081315255 -0.124106124
-0.04648791 -0.014192983 -0.07130501 -0.056314804 -0.053172294 0.005143316 -0.06015667 0.011420793
0.046982273 -0.10957228 -0.12177847 -0.09383981 -0.087487735 -0.067857005 0.0467665 -0.01277089
0.02302993 0.05593015 0.074567616 0.00861999 0.06756593 0.08590206 0.038476143 -0.023556313
00000000: ab1b 783d d93f 9f3d 3c35 fdbd 0d6c 9d3d
00000010: 5e84 a13c aeb3 6e3e c607 46be aaeb dbbe
00000020: 0d1c c5bd 0bc1 bcbc f269 313e f042 1a3e
00000030: 3964 d73d e5fe 56be 1e63 c7bc 943b 303e
00000040: e025 7d3d edd4 d63c 69be 8abd 8cae e9bc
00000050: 3267 f1bb 9904 9abd 3b81 a4bb b9d5 2e3d
00000060: f96c 3bbd 9bf7 d63d ccf0 a1bb 0a42 eebd
00000070: 9b1b a33e 29db dc3a fef4 263e 4533 e2bd
00000080: 1a43 2bbe 999f 8abe f70d f53d e83a 963d
00000090: 3c6e 6fbd 2148 0c3e f878 39bd 8be3 28bc
000000a0: b913 573d a34a 513c 0480 af3d 26c8 dc3d
000000b0: 5da8 5ebc 027a 69bd ea21 51bd 9791 00be
000000c0: e5e5 70bd 8436 18be fac4 e8bd a81b 513b
000000d0: 29e8 163e fc68 e23d 287d 30bd 4e0d 81bc
000000e0: 4514 29bd edc1 e2bc 1d01 30bc 09a7 643d
000000f0: dbef c73c 9515 b0bd d92a 17bd 08b5 0ebc
00000100: 34e8 173e d1e8 663d 1868 d33c b6ae 083e
00000110: cdb2 0f3c 9567 273e 0bf9 0a3e e8da 7a3d
00000120: f771 193e 4314 d13d cb85 903d 9b11 3a3c
00000130: c44a bb3d 0518 4abd 35d7 22be 6803 18bd
00000140: 510f 0f3d 10e8 55bd b149 39ba 7f91 b13d
00000150: e286 91bd d2a2 303c f420 693d 593f d6bc
00000160: 9997 a5bd 9727 0cbd 3213 9b3d 6f50 6ebd
00000170: 5455 093d ed3e 61bd a40f 1abd b8c2 00bd
00000180: f436 cd3a 96b3 0d3e b1f1 b13c 155d 193c
00000190: 840c 263c 2ab5 b83d a44d 22bd 3501 293d
000001a0: 2192 84bb c0d1 bdbc 656b adba 5b05 e83d
000001b0: 0556 903d 0f46 b03d 885a a9bc 9bbf cc3d
000001c0: 6c80 d03d 4fda 01bd 9298 793d d32c 2dbd
000001d0: 5cc2 ca3c 0a62 9d3d 50fc e53c 9d62 353d
000001e0: 3544 ae3d 67d4 40bd e19f 7c3c adf7 b93d
000001f0: dce5 a6bd f58e e63c 70d9 4ebd 4a4d 2b3d
00000200: 0a73 b3be 2329 a8bd 4a9c b43d 8067 06bd
00000210: 2d20 943e 47e7 ef3b 927c dc3d b5bf 803e
00000220: 753c 28be faa5 07be 65e4 27bc e9e6 b93d
00000230: 52ee a63c 6c5f 75bc 8500 e6bd 225b 08be
00000240: 8f84 22bd fad5 10bd 20dc 9cbd bfce 6abc
00000250: 440a 483c aef9 ccbd 6bf7 85bd 0794 a3bd
00000260: 7bb3 43be a7f6 65be ff7d 02be 7029 8a3d
00000270: 73eb bebd e845 02be 4d67 83bc 460f 10be
00000280: 9f5b 8b3b 078b 1a3e ad96 683d 5ed0 92bd
00000290: 3af7 febd b3f8 1d3e cb53 ba3d e3a4 c23d
000002a0: 83d5 d43d f556 0a3e 4d1e 763d 3723 07bd
000002b0: 8c48 e63c 0944 d6bc 03ce 94bd 12c7 943c
000002c0: c14c aa3d 5319 3ebd 7d4a c03c 670a eebd
000002d0: 5e36 6abd 44d4 d6bc 83a4 00bd 7413 d6bd
000002e0: 7bbc c4bd 528e 7c3d 819a a03d e057 c13d
000002f0: 38fe 803d 9d36 903d a07b a93c 837d b53d
00000300: aa32 393e fbe2 b1bd 821a d03d 5c6d 123d
00000310: 5a79 8ebd 5bd4 13bd 10eb acbb 0f32 08bd
00000320: d621 b63d b8cc 64bd 4958 2cbd de18 6e3c
00000330: 33c6 37bd 1db6 73be 20da 34be 02ed 8cbd
00000340: e199 17be 05a9 33be 993c 38be 2468 aabd
00000350: b0d2 04be fd6f c8bd e634 77bc 56a6 fbbc
00000360: d045 58bd ed01 bbbd 0e53 b8bc bc8e c2bd
00000370: 01dc 9fbd 8ab3 eabd a486 81bd 200d 90bb
00000380: 1918 cbbc 7974 0fbe 3263 6e3d b164 9bbd
00000390: 022c 5dbd c124 f5bd 173a 053c 5a2b febd
000003a0: 1b6a 3ebd af89 68bc 5c08 92bd 5aaa 66bd
000003b0: 31cb 59bd 4389 a83b d766 76bd 471e 3b3c
000003c0: 7c70 403d 6e67 e0bd fe66 f9bd 162f c0bd
000003d0: c52c b3bd 9df8 8abd 3b8e 3f3d ff3c 51bc
000003e0: 44a9 bc3c 0317 653d e8b6 983d dc3a 0d3c
000003f0: 0260 8a3d 6bed af3d 2999 1d3d 2bf9 c0bc

fc1.bias f4 [120]
-0.0016015781 0.43233258 0.32961154 0.1162665 0.33141306 0.0066772914 0.39538652 -0.20709452
0.1460897 0.00017368732 0.38645405 0.0010042343 0.17401315 0.11458437 0.288729 0.0504239
0.23945229 0.092763424 -0.16647047 0.31953728 0.0870205 0.07948029 -0.24996133 0.42389992
0.16497853 0.09432017 0.22442691 -0.1288865 0.18593542 0.05282315 0.14097737 0.16768783
-0.06426508 0.13140495 0.17617366 0.097728886 0.08603053 0.048810776 -0.030501902 0.28043634
0.17225523 0.20775002 -0.027200703 0.04150049 -0.010473514 0.4035687 0.12551135 -0.000775154
0.018553022 -0.12200343 0.14243165 0.012088096 0.022688277 0.08990509 0.24777912 0.05679691
0.2778533 0.06301085 0.39910465 0.01742571 0.22142957 0.13470605 0.15364707 0.15432602
0.113334686 0.42747974 -0.1840602 -0.07348267 0.078582674 0.46180487 0.27605042 0.13948317
0.07989325 0.3557131 0.15820079 0.049051072 0.04895859 0.38989657 0.103880905 0.042033806
0.37683707 0.071616165 0.1941102 -0.251863 0.19480172 0.18015747 -0.09813084 0.25177827
-0.006695844 -0.14188975 0.09889695 0.23397212 -0.15449418 0.10698975 0.17015551 -0.000616928
-0.46932247 0.16577159 0.13849466 0.11681916 0.08396166 0.014251421 0.21248451 0.008082535
0.02760165 -0.114558406 0.18713011 0.01864779 -0.0533927 0.002253255 0.31665888 -0.110836476
-0.034184504 0.12769437 -0.8043383 0.128791 0.0013880216 0.0035568022 0.10664344 0.27639815
00000000: 0bec d1ba b25a dd3e d8c2 a83e 211d ee3d
00000010: f9ae a93e 2ecd da3b 1a70 ca3e 9610 54be
00000020: 8a98 153e d61f 3639 4edd c53e 83a0 833a
00000030: 8130 323e 36ab ea3d 4ad4 933e 4b89 4e3d
00000040: fb32 753e c0fa bd3d 3c77 2abe 649a a33e
00000050: ce37 b23d 90c6 a23d ddf5 7fbe 6909 d93e
00000060: 22f0 283e ef2a c13d 2bd0 653e d3fa 03be
00000070: db65 3e3e 165d 583d 5f5c 103e 5cb6 2b3e
00000080: 699d 83bd 058f 063e de66 343e 1526 c83d
00000090: c630 b03d cfed 473d 20df f9bc 5a95 8f3e
000000a0: ad63 303e 6cbc 543e 02d4 debc 6bfc 293d
000000b0: 1a99 2bbc 8fa0 ce3e 0c86 003e b433 4bba
000000c0: 82fc 973c efdc f9bd 9ad9 113e 260d 463c
000000d0: c4dc b93c 2920 b83d cfb9 7d3e e0a3 683d
000000e0: ca42 8e3e d50b 813d 7257 cc3e 5dc0 8e3c
000000f0: 6fbe 623e 62f0 093e a855 1d3e a407 1e3e
00000100: 041c e83d a0de da3e 477a 3cbe 157e 96bd
00000110: f4ef a03d b071 ec3e 7b56 8d3e add4 0e3e
00000120: 129f a33d 0720 b63e 63ff 213e c7e9 483d
00000130: cd88 483d 86a0 c73e 83bf d43d a42b 2c3d
00000140: caf0 c03e 7fab 923d d3c4 463e 30f4 80be
00000150: 1a7a 473e 337b 383e d2f8 c8bd 15e9 803e
00000160: cf68 dbbb 8c4b 11be 7c8a ca3d 6396 6f3e
00000170: b933 1ebe 711d db3d 3f3d 2e3e 56b9 21ba
00000180: 094b f0be 07c0 293e 8bd1 0d3e e23e ef3d
00000190: 17f4 ab3d cb7e 693c 8a95 593e 9c6c 043c
000001a0: db1c e23c 999d eabd 099f 3f3e 40c3 983c
000001b0: 4eb2 5abd 59ab 133b 1d21 a23e 3cfe e2bd
000001c0: 0d05 0cbd 50c2 023e 1de9 4dbf cae1 033e
000001d0: 47ee b53a 3d19 693b e067 da3d 0f84 8d3e

fc2.weight f4 [84, 120]
0.08644432 0.07676644 -0.112755835 -0.116246834 -0.0023697512 -0.060648978 0.05495974 0.042905938
-0.03274093 -0.08423451 0.15500362 -0.099281766 -0.1368798 0.1784151 0.10033817 0.2514199
0.19275646 -0.020715354 -0.075978115 -0.23416242 -0.03328847 -0.13818198 -0.17227918 -0.047915135
0.008411573 -0.16137205 0.22779089 0.022292854 0.051141497 0.02118907 0.2558178 0.044589788
0.11473418 -0.16834281 -0.06571757 0.021446152 -0.114910886 0.039426308 0.0043761027 -0.06964589
0.0032413835 -0.017912474 -0.09034477 -0.14130804 -0.059498884 -0.050705433 0.041050617 -0.023725506
0.047143828 -0.005207352 -0.10101672 0.0046103452 0.009834597 -0.009800481 0.095349655 -0.16706595
-0.1608659 -0.05899868 0.13281152 -0.18110363 0.0137511315 0.12989128 0.049782094 -0.14983442
0.107480384 -0.36682612 0.016831072 -0.17797014 0.1445077 -0.12577014 0.05911522 -0.084920056
0.0670133 -0.07690652 -0.0415014 -0.04342462 0.1649849 -0.096986726 0.2007935 0.042149983
0.03891437 0.12589382 0.0031114023 -0.13110009 0.24363454 -0.022545567 -0.05797839 0.030246397
0.015624873 -0.025521405 0.022859085 0.0977794 -0.03608845 -0.32191536 0.16581626 -0.22941308
0.037386663 0.08978684 -0.18313444 0.08126851 0.061498858 0.1416878 -0.1602411 -0.12211915
0.13950697 -0.06726854 -0.04719167 0.067725055 -0.1610115 -0.13425693 0.07037674 -0.029924013
-0.004753356 -0.015955456 -0.2273347 0.10700397 -0.17533237 -0.12580442 -0.11738679 0.21608813
-0.065411694 0.07332867 0.09081618 -0.13119313 0.061461587 0.07689745 -0.08728385 -0.0074470243
0.09733424 -0.08723104 0.12317151 -0.01671236 0.028470058 -0.06155713 0.0063734464 -0.04104107
-0.07039232 -0.009883491 -0.10103405 -0.054763798 -0.0063500367 0.027934501 -0.04342115 -0.01602272
-0.070893705 -0.031844646 0.12387557 -0.013300568 0.06122093 -0.09987125 -0.038972 0.07189372
-0.008170212 -0.13339612 -0.002897204 -0.00105924 -0.088971496 -0.04537828 0.08936345 -0.02075178
-0.009382061 -0.0036268248 -0.0909218 -0.067605875 -0.11224899 0.02892252 0.023985518 0.034939364
-0.04059807 0.04791339 0.10308779 0.019416437 -0.04191885 0.06311165 0.016659455 -0.032637898
-1.7990176e-05 -0.07942093 -0.031012353 -0.0178648 0.03450455 0.09076285 -0.061143253 -0.104494
0.050302792 -0.06423678 -0.03112602 0.13538152 -0.0741148 -0.06942289 0.035842266 -0.060961258
-0.1197154 0.107747145 -0.06484689 -0.082247525 -0.058359303 -0.034248117 0.01161763 0.07044162
0.014166875 0.07012648 -0.084436536 -0.047564533 0.04467833 0.068850845 -0.024817182 -0.10772998
-0.043805894 -0.030587114 0.016664892 -0.010744178 -0.0499527 0.039344516 0.10729964 -0.055061154
-0.037943184 0.09296355 -0.07314827 -0.04773364 0.049272716 -0.052984886 0.014161737 -0.013803547
-0.01848867 0.007536456 -0.04555748 -0.07480984 0.0063881185 -0.04178345 0.11712523 -0.019359555
0.063181184 0.01502605 -0.08201896 0.05308161 0.09322168 -0.049160883 0.071901605 0.09040128
-0.10831689 0.107816845 0.061126206 0.08024153 -0.14778408 -0.05356604 -0.15599155 -0.060486242
-0.0987042 -0.0072181737 0.0002319641 -0.05225919 0.026173897 -0.018016431 0.11676609 -0.11578072
00000000: b809 b13d b937 9d3d 88ec e6bd d212 eebd
00000010: d44d 1bbb 106b 78bd 771d 613d 23be 2f3d
00000020: 5a1b 06bd 2583 acbd 45b9 1e3e 3d54 cbbd
00000030: 382a 0cbe 73b2 363e 197e cd3d 1cba 803e
00000040: f361 453e 3fb3 a9bc 6a9a 9bbd 46c8 6fbe
00000050: 7e59 08bd 947f 0dbe f469 30be a942 44bd
00000060: b2d0 093c b73e 25be 0442 693e 819f b63c
00000070: bf79 513d b394 ad3c 8dfa 823e c8a3 363d
00000080: c1f9 ea3d 0f62 2cbe ef96 86bd d7af af3c
00000090: 6656 ebbd 7b7d 213d 6965 8f3b 81a2 8ebd
000000a0: 646d 543b 2ebd 92bc ae06 b9bd 0eb3 10be
000000b0: 1ab5 73bd 80b0 4fbd b124 283d fe5b c2bc
000000c0: e319 413d 6fa2 aabb dbe1 cebd 6112 973b
000000d0: 4a21 213c 3292 20bc ae46 c33d 5613 2bbe
000000e0: 08ba 24be 9aa8 71bd beff 073e 3b73 39be
000000f0: 6d4c 613c 3802 053e 4fe8 4b3d 326e 19be
00000100: ad1e dc3d a2d0 bbbe 51e1 893c ce3d 36be
00000110: d4f9 133e e3c9 00be cd22 723d 91ea adbd
00000120: 453e 893d 2a81 9dbd 5ffd 29bd 04de 31bd
00000130: cdf1 283e faa0 c6bd d09c 4d3e 76a5 2c3d
00000140: ad64 1f3d 4fea 003e abe8 4b3b 1a3f 06be
00000150: 557b 793e 7bb1 b8bc c07a 6dbd 4bc7 f73c
00000160: 78ff 7f3c 4412 d1bc fa42 bb3c 9140 c83d
00000170: 7cd1 13bd 17d2 a4be bdcb 293e 43eb 6abe
00000180: c222 193d 2ae2 b73d 9887 3bbe 1b70 a63d
00000190: 3ae6 7b3d 9b16 113e 3e16 24be 9b19 fabd
000001a0: eada 0e3e 17c4 89bd 0d4c 41bd 6fb3 8a3d
000001b0: 33e0 24be a67a 09be ae21 903d 3423 f5bc
000001c0: 0ac2 9bbb 04b5 82bc 6dca 68be e624 db3d
000001d0: 548a 33be e0d2 00be 7c68 f0bd 3546 5d3e
000001e0: 91f6 85bd 572d 963d d5fd b93d 7e57 06be
000001f0: 25bf 7b3d 697c 9d3d e0c1 b2bd 2b06 f4bb
00000200: 2d57 c73d 30a6 b2bd 5841 fc3d 5ce8 88bc
00000210: 0a3a e93c 5423 7cbd 58d8 d03b ae1a 28bd
00000220: d929 90bd 5eee 21bc f1ea cebd 0150 60bd
00000230: f813 d0bb e5d6 e43c 60da 31bd 1442 83bc
00000240: b830 91bd 886f 02bd 7ab2 fd3d a0ea 59bc
00000250: ccc2 7a3d 4c89 ccbd 1ba1 1fbd 043d 933d
00000260: 5adc 05bc fe98 08be 04df 3dbb 32d6 8aba
00000270: b036 b6bd 93de 39bd 2f04 b73d a3ff a9bc
00000280: 37b7 19bc 06b0 6dbb 3535 babd f374 8abd
00000290: cce2 e5bd ecee ec3c 477d c43c 941c 0f3d
000002a0: 294a 26bd d540 443d b11f d33d 380f 9f3c
000002b0: 1ab3 2bbd ae40 813d 6979 883c 51af 05bd
000002c0: 9ce9 96b7 71a7 a2bd 9e0d febc 3359 92bc
000002d0: a554 0d3d e0e1 b93d 5971 7abd f300 d6bd
000002e0: 4d0a 4e3d 938e 83bd fffb febc 74a1 0a3e
000002f0: 80c9 97bd 972d 8ebd 57cf 123d 83b2 79bd
00000300: 592d f5bd 89aa dc3d 72ce 84bd 6471 a8bd
00000310: 2a0a 6fbd c147 0cbd df57 3e3c b243 903d
00000320: 2e1c 683c 799e 8f3d 10ed acbd 07d3 42bd
00000330: a000 373d ac01 8d3d 674d cbbc 89a1 dcbd
00000340: cf6d 33bd d491 fabc d084 883c 5908 30bc
00000350: 349b 4cbd b727 213d eabf db3d ce87 61bd
00000360: 506a 1bbd ac63 be3d c3ce 95bd 5984 43bd
00000370: 30d2 493d ae06 59bd a106 683c 4628 62bc
00000380: 8d75 97bc 60f4 f63b 7b9a 3abd e735 99bd
00000390: 6c53 d13b 1f25 2bbd 5adf ef3d ee97 9ebc
000003a0: 2365 813d d22f 763c 8ef9 a7bd 1a6c 593d
000003b0: 02eb be3d ec5c 49bd 2641 933d 4e24 b93d
000003c0: 3fd5 ddbd 14cf dc3d 795f 7a3d ac55 a43d
000003d0: b654 17be 1068 5bbd 40bc 1fbe 6cc0 77bd
000003e0: 6d25 cabd 6e86 ecbb 643b 7339 bb0d 56bd
000003f0: a46a d63c 3297 93bc 0f23 ef3d 711e edbd

fc2.bias f4 [84]
0.36664584 0.08835644 0.24723835 0.23307358 0.16304955 0.4696549 0.29610997 0.354026
0.12784442 0.09023641 0.30075142 -0.044258945 -0.0455109 0.18853147 0.18312605 0.13411331
0.11114186 0.15890354 0.1998745 0.03788841 -0.17765036 0.19290385 0.3291494 0.39329535
0.38324544 0.053981457 0.042997397 -0.07282668 0.1436086 -0.039015416 -0.03747952 0.19185685
0.08634552 0.5644095 0.16422097 0.17116337 0.50761706 0.057037193 -0.2525146 0.30857652
-0.076531604 0.1462543 0.23217465 0.11494957 0.22954835 0.05733827 0.085615344 0.20577191
0.18975551 0.06267316 0.19036579 0.025125472 0.09819703 0.15000492 -0.004931864 0.26052776
-0.0630274 0.15172985 0.19349277 0.21500663 0.17880158 -0.020167258 -0.099055104 0.013485386
0.34857044 -0.112680495 0.023171641 0.18793833 0.12629366 0.27530473 0.34913558 0.10502378
0.09152081 -0.24191047 -0.08136643 0.4896001 0.0032108505 0.35572106 -0.043596633 0.32582346
0.03310468 0.31182286 0.18827379 0.14158316
00000000: 01b9 bb3e 39f4 b43d 0d2c 7d3e d7aa 6e3e
00000010: 76f6 263e 9b76 f03e ba9b 973e e542 b53e
00000020: a6e9 023e decd b83d 17fc 993e de48 35bd
00000030: a369 3abd 650e 413e 6585 3b3e 0055 093e
00000040: 589e e33d 9cb7 223e e7ab 4c3e e130 1b3d
00000050: fae9 35be 9688 453e 4586 a83e 025e c93e
00000060: bf38 c43e a91b 5d3d 0a1e 303d 2826 95bd
00000070: 220e 133e a1ce 1fbd 2084 19bd 1f76 443e
00000080: ecd5 b03d 247d 103f 8b29 283e 7345 2f3e
00000090: 31f3 013f d59f 693d 9849 81be befd 9d3e
000000a0: 9abc 9cbd b0c3 153e 31bf 6d3e ae6a eb3d
000000b0: b90e 6b3e 89db 6a3d 1957 af3d dfb5 523e
000000c0: 454f 423e c95a 803d 40ef 423e efd3 cd3c
000000d0: 861b c93d e49a 193e 799b a1bb e563 853e
000000e0: 8214 81bd 125f 1b3e f822 463e b32a 5c3e
000000f0: c317 373e ce35 a5bc 67dd cabd cff1 5c3c
00000100: d377 b23e 08c5 e6bd 74d2 bd3c e872 403e
00000110: 2053 013e bef4 8c3e e6c1 b23e b516 d73d
00000120: 436f bb3d 61b7 77be 71a3 a6bd ddac fa3e
00000130: 226d 523b 1221 b63e 6292 32bd 55d2 a63e
00000140: c698 073d 3fa7 9f3e d8ca 403e 2dfb 103e

fc3.weight f4 [42, 84]
-0.11689336 0.05582034 -0.11056263 0.003781863 -0.06043561 -0.004565233 0.106766365 0.058451224
0.11562347 -0.122102775 0.1021426 -0.23254554 -0.2101947 -0.25448823 0.05508391 -0.07258388
0.19718546 -0.044052582 0.17655462 -0.039799914 -0.25865716 0.17134276 0.08498476 0.025872353
-0.100297034 0.00090439507 0.026772546 -0.115491845 -0.12572013 0.109503895 -0.09223781 0.12798479
-0.011593528 0.02268129 0.05305206 0.054553386 -0.3140961 0.047116 0.020605475 0.0937941
-0.08016183 0.041476343 -0.12537387 0.321244 -0.121664055 -0.06265147 0.14560701 0.26211357
0.06779165 -0.1587757 0.19679591 -0.018856639 0.11199293 -0.0072821793 0.12554863 -0.029504249
0.04559599 -0.23125543 -0.09633214 0.12465849 0.25568342 0.08158316 -0.06964818 0.0403847
-0.029591307 -0.08110281 0.12153187 -0.0021539144 0.09301755 0.22749151 -0.0120787 -0.100657724
0.08818269 -0.22817312 0.100288235 -0.033013165 -0.06879655 0.13522252 0.18298765 0.21755564
-0.22389592 0.46256414 0.1479595 0.095336474 0.14368092 -0.010654711 0.15141302 0.020274948
0.08014133 0.3732053 -0.04793505 0.16752048 0.11202031 -0.13663298 0.13954599 0.11497721
0.001073631 0.19259013 -0.10582509 -0.051902466 0.08186438 0.1292314 0.1681344 -0.12296397
0.21399343 0.02784887 -0.052997943 0.025149439 0.12018531 -0.010928539 -0.0068242582 -0.06459844
-0.08514268 0.057379067 0.12323739 -0.3503641 0.009571174 0.26397792 -0.19504371 -0.15597312
0.20446336 0.12765442 -0.10835067 -0.19146639 0.004048943 0.15338185 0.15200087 -0.22212276
0.00071766664 0.1313855 -0.12221151 0.02967647 -0.01955325 0.13470463 0.13383365 -0.06770989
-0.17234086 0.008383457 -0.009132298 0.077259324 0.01650514 0.15897986 -0.23952676 -0.032238964
-0.02886572 -0.06377701 -0.19442806 0.06929332 -0.06861479 -0.13932039 0.0141467815 -0.090395644
0.14872666 -0.08503045 0.19207023 -0.10557934 -0.29496625 -0.04006775 -0.10456033 0.071174026
0.005291228 0.091536686 -0.3134396 0.2548862 0.032169763 -0.18765964 0.025922658 -0.22405227
-0.20666744 -0.0726451 -0.12700018 -0.047612894 -0.09987264 0.023281058 0.1467248 0.045354962
0.08207604 -0.0029862628 -0.04584847 -0.13109894 -0.06317538 0.1479799 0.0087276595 -0.006002186
0.0018367944 -0.010640984 -0.087507375 -0.05550944 0.0023603197 0.24398483 -0.12448123 -0.0027447063
0.14822477 0.045570917 -0.012738947 -0.039505254 0.076235004 -0.038648997 -0.13545227 -0.27749655
0.049779966 0.15128523 -0.12615179 -0.1148354 -0.0047118133 -0.07503762 0.102277055 -0.041328803
-0.115998596 -0.015611514 0.24932091 -0.04461499 0.22555405 -0.034358036 -0.2238096 0.081946485
0.019522786 -0.014521191 0.0790939 0.0070128213 -0.109840035 0.10966354 -0.11933458 0.06893003
0.021611677 -0.022081144 -0.10219616 -0.072920874 0.1652697 -0.106897004 -0.23356469 -0.068312526
0.015729114 -0.0076978025 0.09242664 0.3265381 -0.15619528 0.06620221 -0.0114499 0.024940055
0.06413149 -0.10277448 -0.10704722 -0.069163196 0.015947165 -0.03916316 -0.053648412 0.26137125
0.06874799 -0.013246822 0.047066826 -0.22192444 0.19093418 0.103658535 0.009090378 0.30090237
00000000: c965 efbd dea3 643d a96e e2bd 22d9 773b
00000010: 558b 77bd f397 95bb 53a8 da3d 8d6a 6f3d
00000020: ffcb ec3d 0511 fabd 2430 d13d 6b20 6ebe
00000030: 483d 57be 484c 82be aa9f 613d dba6 94bd
00000040: fcea 493e 7b70 34bd bcca 343e 3c05 23bd
00000050: b66e 84be 7a74 2f3e 7d0c ae3d 42f2 d33c
00000060: 8868 cdbd ed14 6d3a 1952 db3c fd86 ecbd
00000070: c7bc 00be 9443 e03d 2de7 bcbd 720e 033e
00000080: c8f2 3dbc 1dce b93c 1e4d 593d 5f73 5f3d
00000090: 34d1 a0be b5fc 403d d0cc a83c 1f17 c03d
000000a0: e32b a4bd 19e3 293d 0262 00be 187a a43e
000000b0: 012b f9bd 6a4f 80bd 011a 153e c033 863e
000000c0: 59d6 8a3d 1996 22be de84 493e 3d79 9abc
000000d0: 8d5c e53d 599f eebb d28f 003e e5b2 f1bc
000000e0: dcc2 3a3d 39ce 6cbe c949 c5bd f34c ff3d
000000f0: f0e8 823e 1215 a73d b4a3 8ebd 6d6a 253d
00000100: 7869 f2bc 3b19 a6bd b3e5 f83d b028 0dbb
00000110: fc7f be3d 89f3 683e bde5 45bc a325 cebd
00000120: 2099 b43d 37a6 69be eb63 cd3d d038 07bd
00000130: 35e5 8cbd c677 0a3e 1d61 3b3e e8c6 5e3e
00000140: f944 65be 35d5 ec3e b282 173e c53f c33d
00000150: 1721 133e 1991 2ebc 040c 1b3e a617 a63c
00000160: 2321 a43d c414 bf3e 8b57 44bd 7d8a 2b3e
00000170: e76a e53d 84e9 0bbe 25e5 0e3e 2c79 eb3d
00000180: 14b9 8c3a 5936 453e d3ba d8bd ae97 54bd
00000190: 83a8 a73d 3c55 043e 6d2b 2c3e 89d4 fbbd
000001a0: 1821 5b3e 5023 e43c 5f14 59bd 3206 ce3c
000001b0: b723 f63d 9d0d 33bc 079e dfbb 304c 84bd
000001c0: 495f aebd 5006 6b3d e263 fc3d ec62 b3be
000001d0: 6ad0 1c3c 1d28 873e 8ab9 47be 6bb7 1fbe
000001e0: d85e 513e d7b7 023e f5e6 ddbd c40f 44be
000001f0: ffac 843b 2210 1d3e 1ea6 1b3e 2674 63be
00000200: cb21 3c3a ec89 063e 074a fabd 121c f33c
00000210: 232e a0bc 03f0 093e b00b 093e 7cab 8abd
00000220: 1f7a 30be c45a 093c a29f 15bc 233a 9e3d
00000230: ca35 873c 9ecb 223e 8146 75be 010d 04bd
00000240: cd77 ecbc 859d 82bd 2618 47be a8e9 8d3d
00000250: e985 8cbd 01aa 0ebe e7c7 673c 5a21 b9bd
00000260: cd4b 183e 7224 aebd 0fae 443e fb39 d8bd
00000270: d105 97be 151e 24bd ba23 d6bd b0c3 913d
00000280: 0a62 ad3b 9677 bb3d 287b a0be 7280 823e
00000290: 71c4 033d d929 40be c15b d43c f56d 65be
000002a0: a1a0 53be f4c6 94bd 560c 02be bd05 43bd
000002b0: 078a ccbd ebb7 be3c 073f 163e 20c6 393d
000002c0: 7c17 a83d 2db5 43bb 9bcb 3bbd cd3e 06be
000002d0: 1862 81bd 0b88 173e 75fe 0e3c fcad c4bb
000002e0: 98c0 f03a 8657 2ebc 1137 b3bd de5d 63bd
000002f0: 98af 1a3b 29d7 793e 04f0 febd 88e0 33bb
00000300: 3cc8 173e 92a8 3a3d 04b7 50bc 43d0 21bd
00000310: 1921 9c3d 694e 1ebd 00b4 0abe 0714 8ebe
00000320: 14e6 4b3d 84ea 1a3e ef2d 01be d22e ebbd
00000330: 8e65 9abb 53ad 99bd a276 d13d 6448 29bd
00000340: ac90 edbd 70c7 7fbc fb4d 7f3e 35be 36bd
00000350: a4f7 663e 03bb 0cbd 582e 65be 8fd3 a73d
00000360: 40ee 9f3c 4aea 6dbc fcfb a13d cfcb e53b
00000370: d0f3 e0bd 4797 e03d b065 f4bd 302b 8d3d
00000380: f90a b13c 84e3 b4bc 384c d1bd 8a57 95bd
00000390: 763c 293e d1ec dabd 952b 6fbe 70e7 8bbd
000003a0: 58da 803c d93d fcbb 2e4a bd3d 0030 a73e
000003b0: a8f1 1fbe 0695 873d 5d98 3bbc 164f cc3c
000003c0: 5f57 833d 6d7b d2bd 933b dbbd 6fa5 8dbd
000003d0: a1a3 823c 8d69 20bd 70be 5bbd 74d2 853e
000003e0: bfcb 8c3d 3309 59bc 25c9 403d 2940 63be
000003f0: 4084 433e ed4a d43d cfef 143c e00f 9a3e

fc3.bias f4 [42]
0.14354216 0.27930355 0.09202959 0.07517005 -0.048651047 0.33195814 0.10800377 0.31237
0.33887315 0.11185512 0.16466057 0.11411275 0.0869111 0.072617285 -0.007105039 0.06247364
-0.25867704 0.34807578 0.32163337 0.05381364 0.11832361 0.12245085 -0.109174795 0.16379988
0.20571813 0.112661704 -0.04725012 0.24406482 0.034086898 -0.04852816 0.22316132 0.2487719
0.28366974 0.11849125 0.44586357 -0.10673297 0.113219336 0.4687817 0.16998912 0.21445633
0.071091324 0.4011667
00000000: b7fc 123e e000 8f3e 027a bc3d c1f2 993d
00000010: 5246 47bd 6bf6 a93e 1531 dd3d f6ee 9f3e
00000020: c880 ad3e 4c14 e53d c89c 283e f2b3 e93d
00000030: 72fe b13d 5fb8 943d 63d1 e8bb 5ce4 7f3d
00000040: 5171 84be fd36 b23e 21ad a43e b16b 5c3d
00000050: a653 f23d 83c7 fa3d 0997 dfbd 28bb 273e
00000060: c6a7 523e 2ebb e63d 5889 41bd 21ec 793e
00000070: b49e 0b3d 77c5 46bd 6784 643e 10be 7e3e
00000080: 293d 913e 8aab f23d 3b48 e43e d196 dabd
00000090: 8adf e73d 2804 f03e a111 2e3e 719a 5b3e
000000a0: 5498 913d b965 cd3e

fc4.weight f4 [10, 42]
0.08363025 -0.117431134 0.16522355 -0.5107605 -0.3659111 -0.13840967 0.048296753 0.34771648
-0.45937872 0.28305602 -0.9415831 0.3497778 0.24633504 0.22689277 0.05489465 0.29068688
0.055543445 -0.16614519 0.6788988 -0.5143946 0.22450449 0.2828996 0.100236416 -0.45005366
0.31512034 -0.66613466 0.06121425 -0.20418878 -0.082920976 0.1265693 -0.64812577 -0.12091302
-0.33608487 0.32135007 0.66369236 0.12946688 -0.7667577 1.0691296 0.18012564 0.7275431
-0.37843755 -0.011699792 -0.23800707 0.16952889 -0.032713525 -0.3227471 -0.5465622 -0.28746077
-0.07692419 -0.21908815 0.4443955 -0.31109044 -0.22085993 0.11704827 0.4473457 0.41154867
0.36917552 0.06603906 -0.09467063 -0.41770586 -0.12554489 0.2395159 0.13376996 0.57590115
0.10851017 -0.29198238 0.65660226 0.35645515 0.1373764 -0.027458545 0.12498553 -0.042706475
0.43846226 0.31160158 0.008073139 -0.52442944 -0.65707374 0.06883682 -0.1332016 -0.13971382
0.041110218 -0.14633876 0.07103821 0.087727204 -0.35201126 -0.22868828 -0.4259415 0.5387492
-0.1576154 0.044262443 -0.23149227 -0.011697496 -0.23326357 -0.257809 -0.1414398 -0.33170697
-0.453675 -0.16351552 0.3441067 -0.14241102 0.06353019 0.59157425 0.4353446 0.53161126
0.15205918 -0.26542816 -0.08572574 0.5357707 0.4202085 -0.2609615 -0.026154226 0.16850258
-0.322414 0.16530158 0.40934363 0.23830888 -0.2253938 -0.18092264 0.38094622 -0.087485485
0.8299815 0.32880354 -0.07307376 -0.47557873 -0.2623329 -0.08786299 -0.024719771 0.26995546
-0.08711958 -0.08664819 0.40908098 0.24272938 -0.5784991 -0.39776856 -0.23616797 0.026171122
0.22067794 0.307035 -0.100546345 0.28530788 0.1516259 0.27208343 0.16466068 0.2161642
-0.67270607 0.2846164 -0.30254394 0.18159601 -0.04347636 0.24256882 0.42705753 -0.03702478
-0.14404137 -0.29299846 0.14555551 0.1253697 0.20467885 0.44952536 0.3402973 -0.12012585
0.21390517 -0.08798176 0.8118402 -0.0103374 0.21928394 0.024917245 0.47038832 -0.9592341
0.114716895 0.1207258 0.14062901 -0.13680352 0.3025244 0.43220627 -0.02434695 -0.3407975
0.1406663 0.55856186 -0.8081468 -0.38132146 0.5507143 0.07455428 0.35548806 0.20500627
-0.13961054 0.4039002 -0.034915537 -0.5324015 0.16868076 0.116754904 -0.12415991 0.5094871
-0.5783711 0.5656197 -0.1355628 -0.13689156 -0.02807676 0.12757166 -0.35682666 -0.59311575
0.457178 -0.41697964 -0.9491621 -0.16054615 0.4529626 -0.10098255 0.09777803 0.18432076
0.36006463 0.3912665 -0.428463 0.19755651 0.61372465 -0.034649692 0.21357365 -0.45760962
-0.04623621 0.522331 0.8434303 0.029858345 0.034509327 0.26191702 -0.4280453 -0.4585566
0.22653872 0.2573272 -0.09848534 -0.8776487 -0.0698455 0.21101303 -0.5655121 -0.27707425
0.008087398 0.056519493 -0.053992935 -0.19494435 0.029915927 0.28369206 0.19904022 0.017850513
-0.5946754 -0.20109501 -0.16866502 0.37827876 0.31480595 -0.21563677 -0.77612996 -0.71390474
-0.28418577 -0.5551146 0.0810288 0.5274183 0.43002307 -0.14458548 -0.06981296 0.26344943
00000000: 5646 ab3d bc7f f0bd 5d30 293e 33c1 02bf
00000010: b358 bbbe 44bb 0dbe d1d2 453d e507 b23e
00000020: b033 ebbe b8ec 903e 970b 71bf 1316 b33e
00000030: 413f 7c3e 9456 683e 36d9 603d e9d4 943e
00000040: 8681 633d f721 2abe 50cc 2d3f 5daf 03bf
00000050: 81e4 653e 37d8 903e c048 cd3d 6f6d e6be
00000060: 7457 a13e cd87 2abf cbbb 7a3d dd16 51be
00000070: 79d2 a9bd 629b 013e 92eb 25bf 3fa1 f7bd
00000080: 5113 acbe ff87 a43e bee7 293f f792 043e
00000090: 3c4a 44bf 3dd9 883f db72 383e 4440 3a3f
000000a0: 91c2 c1be 7cb0 3fbc 20b8 73be fb98 2d3e
000000b0: 9efe 05bd 1c3f a5be 80eb 0bbf 0f2e 93be
000000c0: 6e8a 9dbd a558 60be cf87 e33e 3f47 9fbe
000000d0: 1b29 62be 01b7 ef3d 7f0a e53e 82b6 d23e
000000e0: 9304 bd3e 7d3f 873d ade2 c1bd 8bdd d5be
000000f0: d78e 00be a843 753e fefa 083e 426e 133f
00000100: 943a de3d b77e 95be 1617 283f 4a81 b63e
00000110: 66ac 0c3e bef0 e0bc 6af8 ff3d fcec 2ebd
00000120: 207e e03e 3e8a 9f3e 3345 043c 0241 06bf
00000130: fc35 28bf 52fa 8c3d 0066 08be 2411 0fbe
00000140: 3063 283d d4d9 15be 7b7c 913d 52aa b33d
00000150: d23a b4be 432d 6abe 0115 dabe 78eb 093f
00000160: ee65 21be 894c 353d 4f0c 6dbe dba6 3fbc
00000170: a5dc 6ebe 8bff 83be 98d5 10be 7fd5 a9be
00000180: 1748 e8be 9d70 27be c12e b03e 32d4 11be
00000190: 1e1c 823d 6971 173f 7de5 de3e ad17 083f
000001a0: 67b5 1b3e 33e6 87be fa90 afbd 4528 093f
000001b0: 9225 d73e bf9c 85be 6341 d6bc f18b 2c3e
000001c0: 7313 a5be d144 293e 7d95 d13e 3e07 743e
000001d0: a2cd 66be c943 39be 620b c33e 972b b3bd
000001e0: ab79 543f f058 a83e b2a7 95bd 0e7f f3be
000001f0: 7f50 86be 83f1 b3bd 1e81 cabc 9a37 8a3e
00000200: c06b b2bd 9b74 b1bd 1073 d13e 0d8e 783e
00000210: 8418 14bf 52a8 cbbe 04d6 71be d264 d63c
00000220: 66f9 613e b133 9d3e 3eeb cdbd e013 923e
00000230: d243 1b3e 854e 8b3e cf9c 283e 265a 5d3e
00000240: 7736 2cbf 3eb9 913e 0ae7 9abe 4ef4 393e
00000250: 4514 32bd f663 783e 49a7 da3e 4ca7 17bd
00000260: 957f 13be e503 96be 810c 153e ea60 003e
00000270: 5597 513e 3028 e63e 733b ae3e 8b04 f6bd
00000280: f509 5b3e c82f b4bd c2d4 4f3f 335e 29bc
00000290: f88b 603e 401f cc3c bdd6 f03e 5e90 75bf
000002a0: b1f0 ea3d 173f f73d 0d01 103e 3916 0cbe
000002b0: 7ae4 9a3e 244a dd3e 4173 c7bc 037d aebe
000002c0: d40a 103e e9fd 0e3f b5e2 4ebf 913c c3be
000002d0: 9dfb 0c3f eaaf 983d 8802 b63e 2aed 513e
000002e0: 11f6 0ebe 02cc ce3e 9803 0fbd 774b 08bf
000002f0: a6ba 2c3e 321d ef3d 8d47 febd bf6d 023f
00000300: 2110 14bf 74cc 103f fad0 0abe 4d2d 0cbe
00000310: 3c01 e6bc 25a2 023e fcb1 b6be 6fd6 17bf
00000320: 3c13 ea3e 5b7e d5be 4afc 72bf 3666 24be
00000330: b7ea e73e f0cf cebd d93f c83d 95be 3c3e
00000340: 645a b83e 1554 c83e 815f dbbe 414c 4a3e
00000350: 0f1d 1d3f d6ec 0dbd 0db3 5a3e cf4b eabe
00000360: 2e62 3dbd 7cb7 053f 0ceb 573f 7d99 f43c
00000370: a759 0d3d fd19 863e c128 dbbe eec7 eabe
00000380: c4f9 673e 64c0 833e afb2 c9bd 96ad 60bf
00000390: 280b 8fbd cd13 583e 67c5 10bf addc 8dbe
000003a0: 0181 043c fc80 673d b227 5dbd 7e9f 47be
000003b0: 3f12 f53c 1640 913e 33d1 4b3e 3d3b 923c
000003c0: a63c 18bf daeb 4dbe 86b6 2cbe c1ad c13e
000003d0: 3f2e a13e e3cf 5cbe 74b0 46bf 76c2 36bf
000003e0: cc80 91be fe1b 0ebf 6df2 a53d e304 073f
000003f0: fc2b dc3e 370e 14be 19fa 8ebd d8e2 863e

fc4.bias f4 [10]
0.3314699 -0.3155963 0.4136005 -0.05393055 -0.11795427 0.28888708 -0.4368347 0.19490804
0.13102359 -0.34206778
00000000: 6cb6 a93e d795 a1be 72c3 d33e 48e6 5cbd
00000010: 0292 f1bd 02e9 933e cca8 dfbe f995 473e
00000020: 0c2b 063e 8223 afbe
